Code/phase2/logs/checkpoints/io_best_model.pt (torch, 216850 bytes, 18 tensors)

linear.weight f4 [32, 6]
0	0xbe05f3c8	-0.13081276
1	0xbe27b2a4	-0.1637674
2	0x3e301236	0.17194447
3	0xbe8e3802	-0.27777106
4	0x3dbe829c	0.093022555
5	0xbe61a312	-0.22034863
6	0xbb6c25fb	-0.003603338
7	0x3e5f8ff8	0.21832263
8	0x3e93cdda	0.2886799
9	0x3db8a7fc	0.090164155
10	0xbe30aa28	-0.1725241
11	0x3ebf66c4	0.3738309
12	0x3d588494	0.05286081
13	0x3e3f9c74	0.18712026
14	0xbd59d3be	-0.05318045
15	0x3e7ce0e7	0.24695168
16	0x3ebc3a40	0.3676319
17	0x3e0a6dae	0.13518402
18	0xbeb46e51	-0.35240415
19	0xbeb5dc0e	-0.3551945
20	0x3e117ae0	0.1420703
21	0x3dc883e5	0.09790782
22	0xbed031c1	-0.4066296
23	0xbea9eee8	-0.33190084
24	0xbd9c3327	-0.07626944
25	0xbe8898f3	-0.2667919
26	0xbe9588f5	-0.29206052
27	0xbe1bc1c3	-0.15210633
28	0x3df6fb0a	0.12059601
29	0x3df88d5a	0.12136336
30	0xbe3f7224	-0.18695885
31	0x3eabae80	0.3353157
32	0x3cf0c582	0.029391054
33	0x3e95b878	0.292423
34	0x3e55e198	0.20886838
35	0xbe6b5741	-0.22982503
36	0x3d528a79	0.05140159
37	0x3ec60cec	0.38681734
38	0x3e4bc616	0.19899783
39	0xbda5c40d	-0.08094034
40	0x3e437f86	0.19091615
41	0xbea34cf4	-0.31894648
42	0xbeb97e60	-0.3622923
43	0x3ecc7ea8	0.3994038
44	0x3ead80da	0.33887368
45	0xbd961036	-0.07327311
46	0x3dd8e8b6	0.10591261
47	0x3e75ba55	0.23996861
48	0xbd7d6a9c	-0.06186925
49	0x3ec1d4db	0.37857708
50	0xbe6450bc	-0.22296423
51	0x3ddba020	0.10723901
52	0xbecb3d3d	-0.3969516
53	0x3e3289ac	0.1743533
54	0x3e56a96a	0.20963064
55	0xbeaeef20	-0.34166813
56	0xbe2597a3	-0.16171126
57	0xbdfedc96	-0.12444417
58	0x3ea59e33	0.3234726
59	0xbde33a25	-0.110950746
60	0x3e950fbd	0.2911357
61	0x3e86abe9	0.26303032
62	0x3ce23626	0.02761371
63	0xbec3118d	-0.38099328
64	0x3e956079	0.29175165
65	0x3e86ebee	0.26351875
66	0xbe3a15fb	-0.18172447
67	0x3d88bea4	0.06676987
68	0x3de81038	0.113312185
69	0xbea7c9dd	-0.32771197
70	0x3ec7416e	0.38917106
71	0xbc6e34b9	-0.014538937
72	0x3d5d35d0	0.054006398
73	0x3e504a12	0.20340756
74	0x3e91758f	0.28410003
75	0xbe162746	-0.14663419
76	0x3e9707b5	0.29498067
77	0x3e5f5272	0.21808794
78	0xbec0468e	-0.3755383
79	0x3e339755	0.17538197
80	0x3ea679f8	0.3251493
81	0x3cd30d12	0.025763068
82	0x3ec58903	0.38581094
83	0x3e2c55d2	0.16829613
84	0x3e81088c	0.25201833
85	0x3ea7850a	0.32718688
86	0xbe8cd219	-0.27504042
87	0xbc21a46a	-0.0098658595
88	0x3e6d5df9	0.23180379
89	0x3d1c0f0b	0.038100284
90	0x3d8da17a	0.06915565
91	0x3ecd4844	0.40094197
92	0xbeb93749	-0.36174992
93	0xbe31dd6d	-0.17369623
94	0xbd344c34	-0.044017985
95	0xbe21e7d9	-0.15811099
96	0xbec1957e	-0.37809366
97	0x3ea920aa	0.33032733
98	0x3e72a678	0.23696315
99	0xbe3bb5ec	-0.18331116
100	0xbe93bc0d	-0.2885441
101	0x3ebbe3f6	0.36697358
102	0x3e54a50f	0.2076609
103	0xbe9212c3	-0.2852994
104	0x3d307a09	0.04308513
105	0x3d4e3e8f	0.05035263
106	0xbe8f6059	-0.28003195
107	0x3e96f6fc	0.2948531
108	0xbe418f64	-0.18902355
109	0xbde0530a	-0.109533384
110	0xbccbff17	-0.02490191
111	0xbebe7ae1	-0.37203124
112	0xbe84f55c	-0.25968444
113	0x3e495e85	0.19664963
114	0x3db00040	0.08593798
115	0x3e9f2bbf	0.31088063
116	0x3e73ee08	0.2382127
117	0xbd650200	-0.05591011
118	0x3ecc8fb1	0.39953378
119	0xbea7b0cf	-0.32752082
120	0xbe0bec39	-0.1366433
121	0xbecdc0bb	-0.40186104
122	0xbec82a3f	-0.3909473
123	0xbe307ebe	-0.17235848
124	0xbebe0922	-0.37116343
125	0xbc34520d	-0.011005891
126	0x3e8b5792	0.27215248
127	0xbe62031a	-0.22071496
128	0xbd903609	-0.070415564
129	0xbe900f32	-0.28136593
130	0xbe8a6205	-0.27027908
131	0x3d458d74	0.048230603
132	0xbdc2c941	-0.095110424
133	0x3e534093	0.20630102
134	0xbeb4a358	-0.3528087
135	0xbe9d1313	-0.30678615
136	0x3e93e134	0.28882754
137	0xbe28b7cf	-0.16476367
138	0x3cb62d0d	0.022238279
139	0x3e40083b	0.1875314
140	0x3e2df821	0.16989185
141	0xbebbb146	-0.36658686
142	0xbe3ee216	-0.18640932
143	0xbe79fad4	-0.2441209
144	0xbe7ab994	-0.24484855
145	0xbe613e80	-0.21996498
146	0xbe954f35	-0.29161993
147	0xbea00611	-0.31254628
148	0x3e344d2d	0.17607565
149	0x3dda2792	0.10652079
150	0xbcd5fbb1	-0.026120992
151	0x3e989434	0.2980057
152	0x3e85e675	0.26152387
153	0x3e81bdf7	0.25340244
154	0x3e6a238b	0.22865121
155	0x3d77bde7	0.06048384
156	0x3e03bda0	0.12865305
157	0x3de6bd62	0.11266591
158	0xbd208f68	-0.039199263
159	0x3e2686cd	0.1626236
160	0xbe9f27c7	-0.31085035
161	0x3e3069df	0.17227887
162	0x3e7ca601	0.246727
163	0xbe0dab7f	-0.13834952
164	0xbe795d4a	-0.24351993
165	0x3e416e32	0.18889692
166	0x3eaad812	0.33367974
167	0xbe9350d0	-0.28772593
168	0x3d03f391	0.032214705
169	0x3d1d7c35	0.03844853
170	0x3eba1a1c	0.36348045
171	0xbc1e93c2	-0.009678783
172	0xbda03cfe	-0.07824133
173	0x3e0b3779	0.1359538
174	0x3e7dd878	0.24789608
175	0xbe25e66f	-0.16201185
176	0xbd8b68a1	-0.06807066
177	0xbecb5d6b	-0.3971971
178	0xbe233912	-0.1593974
179	0x3e3f91fe	0.18708035
180	0xbe9dbd5a	-0.30808526
181	0xbeaab0b1	-0.3333793
182	0xbc3daebb	-0.0115773035
183	0xbe846ebb	-0.2586573
184	0x3e480aae	0.19535324
185	0xbe39709b	-0.18109362
186	0x3e9f7281	0.31142047
187	0x3e80092e	0.25007004
188	0x3e8dcf74	0.27697337
189	0x3dc43618	0.0958063
190	0xbe28de5d	-0.16491075
191	0x3ea4e07f	0.32202527

linear.bias f4 [32]
0	0x3ead0786	0.33794802
1	0x3d79121e	0.060808294
2	0xbc079845	-0.00827605
3	0xbeb28a0d	-0.3487095
4	0x3dfeb1c6	0.12436251
5	0xbce0091f	-0.0273481
6	0x3eb55e82	0.35423666
7	0xbe9dbd2b	-0.30808386
8	0x3e9d5ef2	0.307365
9	0x3ea856a3	0.328786
10	0x3d808637	0.062755994
11	0xbe8743ac	-0.26418817
12	0xbec7a9ed	-0.3899683
13	0xbecb9195	-0.39759508
14	0xbe227fec	-0.15869111
15	0xbd4ffbcb	-0.050777238
16	0xbd5d23e2	-0.0539893
17	0x3e21e1cc	0.15808791
18	0x3ea115d5	0.3146197
19	0x3e601a2f	0.21884988
20	0xbd2b8fec	-0.0418853
21	0xbe32e20b	-0.17469041
22	0xbebba4b3	-0.36649093
23	0x3e557193	0.20844106
24	0xbebd68d9	-0.36994055
25	0x3e496cfb	0.19670479
26	0xbdfb3f56	-0.1226794
27	0xbe72d408	-0.23713696
28	0x3a8b2ed8	0.0010618819
29	0xbeb64ec9	-0.35606983
30	0xbe1dec18	-0.15422094
31	0xbe855a04	-0.2604524

norm.weight f4 [32]
0	0x3f80451d	1.0021092
1	0x3f80083f	1.0002517
2	0x3f7f0802	0.99621594
3	0x3f7dfbd9	0.99212414
4	0x3f7db812	0.99108994
5	0x3f7f4c17	0.9972548
6	0x3f7f3775	0.99693996
7	0x3f7ecceb	0.9953143
8	0x3f7ea57e	0.9947127
9	0x3f80280a	1.0012219
10	0x3f7e2cf8	0.99287367
11	0x3f802d39	1.0013801
12	0x3f803969	1.001752
13	0x3f7fd6c7	0.999371
14	0x3f7fa512	0.9986125
15	0x3f80aae1	1.0052148
16	0x3f805a86	1.0027626
17	0x3f7ff3ec	0.9998157
18	0x3f80217d	1.001022
19	0x3f803d29	1.0018665
20	0x3f7f9285	0.99832946
21	0x3f7d484f	0.9893846
22	0x3f7e3d70	0.99312496
23	0x3f7e4170	0.993186
24	0x3f800413	1.0001243
25	0x3f7eedcf	0.9958162
26	0x3f7fcdc3	0.9992334
27	0x3f80771e	1.0036352
28	0x3f7d1f06	0.98875463
29	0x3f80cb10	1.006197
30	0x3f803ac6	1.0017936
31	0x3f7e1c0d	0.9926155

norm.bias f4 [32]
0	0x3bb432e9	0.005499233
1	0x3ba8a4b3	0.005146587
2	0x3b4c70f9	0.0031195267
3	0x3b771251	0.0037700126
4	0xbb4667ad	-0.0030274198
5	0x3a715403	0.0009205939
6	0xbb067e7a	-0.0020522163
7	0xbb42703e	-0.0029668952
8	0xbb407ae3	-0.0029370121
9	0x3bc86475	0.006115491
10	0xbbc8fe76	-0.0061338497
11	0xbada7831	-0.00166679
12	0xbb5a6324	-0.0033323253
13	0xbb2e95f3	-0.002663967
14	0xbb87571c	-0.0041302573
15	0x3b079f35	0.002069426
16	0x3b77f501	0.0037835243
17	0x3b5deb80	0.0033862293
18	0x3b1b5ce0	0.002370648
19	0x3aa133c2	0.001229875
20	0x3b846eb8	0.004041519
21	0x3badd60c	0.0053050574
22	0xbaaf010e	-0.0013351755
23	0xbc12a3b1	-0.00895016
24	0xb9e10656	-0.00042920065
25	0xbbd33867	-0.0064459327
26	0x3ba37eff	0.0049895043
27	0xb9f480ad	-0.00046635178
28	0xba59ef80	-0.00083135813
29	0xbbc31110	-0.0059529617
30	0x3ada845a	0.0016671524
31	0x3af5c209	0.0018749844

lstm_pos.weight_ih_l0 f4 [256, 32]
0	0x3ddaf61d	0.10691474
1	0xbd14e897	-0.036354627
2	0xbdcd8ddf	-0.100368254
3	0xbd8935e8	-0.06699735
4	0xbdc307f2	-0.09523
5	0x3daaae14	0.08333984
6	0xbde24ac5	-0.110494174
7	0xbd553b2e	-0.05205839
8	0xbdd23427	-0.102638535
9	0xbd2e98c9	-0.042626176
10	0x3d6ba054	0.057525948
11	0xbd2fb58b	-0.042897742
12	0xbc1a4b80	-0.009417415
13	0xbd9331d6	-0.0718724
14	0x3c8ac36f	0.016938893
15	0xbd1ecf46	-0.03877189
16	0x3da4a98a	0.080401495
17	0xbd8bd865	-0.06828383
18	0x3de3f871	0.11131371
19	0xbdd27726	-0.10276632
20	0xbc7c5a7b	-0.015402432
21	0x3d98c4c4	0.07459405
22	0xbdb16e6d	-0.0866364
23	0x3da8be5d	0.08239434
24	0x3c3c5a6a	0.011496166
25	0x3d32a1a9	0.043611202
26	0x3cd4b158	0.02596347
27	0x3d81b6d9	0.063337035
28	0xbde9b475	-0.114113726
29	0xbdd36e48	-0.10323769
30	0xbd1b6169	-0.037934694
31	0x3d3b4288	0.045717746
32	0x3d073504	0.033009544
33	0xbcfcbd9f	-0.030852137
34	0xbd9d1bf3	-0.076713465
35	0xbdbac1a3	-0.091189645
36	0x3dcdb341	0.100439556
37	0xbd93aa2e	-0.072101936
38	0x3dfcbc77	0.12340634
39	0xbde44679	-0.11146254
40	0x3dc9e3ad	0.09857879
41	0x3c31550f	0.010823502
42	0xbd25359d	-0.040334333
43	0x3d210213	0.03930862
44	0xbdccde5f	-0.100033514
45	0x3d8d1e44	0.06890538
46	0xbd4daf73	-0.05021615
47	0xbd4aee24	-0.049543515
48	0x3d806ff9	0.06271357
49	0x3dde79b1	0.108630545
50	0xbd99cb52	-0.075094834
51	0xbd03711d	-0.032090295
52	0x3df90f20	0.12161088
53	0x3dc9cbde	0.09853338
54	0x3deacb89	0.114646025
55	0xbddb0bf9	-0.10695643
56	0xbddfba26	-0.10924177
57	0x3d330db5	0.043714244
58	0xbb899c86	-0.0041995673
59	0x3dc30676	0.09522717
60	0xbd8e16b2	-0.069379225
61	0xbdac4e52	-0.08413376
62	0x3dc3293c	0.09529349
63	0xbd682a10	-0.05668074
64	0xbc14fc48	-0.009093352
65	0x3debeebc	0.11520144
66	0x3d66cc46	0.056347154
67	0xbdd68ab3	-0.104756735
68	0xbd9e2da5	-0.0772355
69	0x3cb77fd6	0.022399824
70	0x3d677c1c	0.056514844
71	0x3df0448f	0.117318265
72	0xbc393ec8	-0.011306472
73	0x3d901390	0.07034981
74	0xbc8f9748	-0.017528191
75	0xbdb561e6	-0.08856563
76	0xbdd3909b	-0.10330316
77	0x3d886295	0.06659428
78	0x3d0b2d67	0.033978846
79	0x3da52d05	0.080652274
80	0x3d42596c	0.04744856
81	0xbdff3528	-0.124613106
82	0xbdc48a2b	-0.09596666
83	0xbd75e273	-0.060030412
84	0x3da1c768	0.07899362
85	0x3dc042b6	0.09387724
86	0xbc97df0a	-0.01853897
87	0xbdc078eb	-0.09398063
88	0xbbd90cee	-0.006623856
89	0xba7b3e42	-0.0009584167
90	0x3d53008a	0.051514186
91	0x3dcd01b2	0.10010089
92	0xbd9811de	-0.07425283
93	0xbd3a6062	-0.045502074
94	0x3c9aac4a	0.018880982
95	0x3b823f70	0.0039748475
96	0x3cd23d9f	0.025664149
97	0x3dd643a6	0.10462122
98	0x3cbea139	0.023270236
99	0xbb473521	-0.0030396658
100	0x3d26a20d	0.040681887
101	0x3de4e52d	0.11176524
102	0xbd9ed2ba	-0.07755037
103	0x3e00757a	0.12544814
104	0x3df08032	0.11743201
105	0xbd17310a	-0.036912
106	0xbddf980c	-0.109176725
107	0xbcb7a359	-0.022416757
108	0x3d72d1b1	0.05928201
109	0xbd4d0f5a	-0.05006347
110	0xbd9cb02f	-0.07650792
111	0x3dadf89e	0.084946856
112	0xbd19107e	-0.037369244
113	0x3d870e98	0.065945804
114	0x3db2d294	0.08731571
115	0x3d967481	0.0734644
116	0x3d927028	0.07150298
117	0x3d314100	0.04327488
118	0x3dad2e74	0.08456126
119	0xbdca22a6	-0.0986989
120	0x3dbcdd1a	0.09221859
121	0xbddc7220	-0.10763955
122	0x3d5faa6c	0.054605886
123	0xbca2648a	-0.019823331
124	0xbd77a6ad	-0.06046169
125	0xbdf101dd	-0.117679335
126	0xbd915486	-0.070962
127	0x3b12bb53	0.0022389486
128	0x3d571ff3	0.052520704
129	0xbd99bb7f	-0.07506465
130	0x3d1a2947	0.03763702
131	0x3d9d54c1	0.07682181
132	0xbde4a6b2	-0.11164607
133	0x3dca5842	0.09880115
134	0x3cdb4169	0.026764588
135	0x3dfd3bfe	0.12364958
136	0x3d8e459f	0.06946873
137	0xbdb7405d	-0.08947823
138	0xbdab2e75	-0.0835847
139	0x3c48d388	0.012257464
140	0xbd190cc9	-0.03736571
141	0xbcca23e3	-0.024675315
142	0x3d77b031	0.060470764
143	0x3de3c6a6	0.111218736
144	0x3ada61d5	0.0016661236
145	0xbd64e077	-0.05587813
146	0x3d3e2d2a	0.04642979
147	0xba55358b	-0.00081332837
148	0x3b63d198	0.0034762379
149	0x3d4632b1	0.048388187
150	0x3dbe11d7	0.092807464
151	0x3cc06c09	0.023489015
152	0xbda5c0f4	-0.080934435
153	0x3dcd6f65	0.100310124
154	0x3ba41e7d	0.0050085173
155	0xbc0013a9	-0.007817187
156	0xbdc49214	-0.09598175
157	0x3cbff236	0.023430925
158	0xbd495dcf	-0.04916173
159	0xbd9512ab	-0.07278951
160	0x3c36b045	0.011150424
161	0xbdbd15b6	-0.09232657
162	0x3dc97c96	0.09838216
163	0x3c26501a	0.010150934
164	0xbcbc973b	-0.023021331
165	0xbd7d2ecc	-0.061812207
166	0xbd2796b4	-0.040915206
167	0xbd967e68	-0.07348329
168	0xbc338495	-0.010956903
169	0x3d8422b8	0.064519346
170	0xbcaf17cc	-0.021373652
171	0xbdbb6289	-0.091496535
172	0x3d13cca8	0.036083847
173	0x3d916390	0.07099068
174	0xbda51e5d	-0.08062432
175	0xba3717be	-0.0006984434
176	0xbdfced1e	-0.12349914
177	0x3df24fb5	0.11831609
178	0xbdb7da10	-0.08977139
179	0xbdda7b30	-0.106680274
180	0x3d9f71fc	0.07785413
181	0xbd5fa134	-0.054597095
182	0xbdd47dbe	-0.10375546
183	0xbcec9e81	-0.028884174
184	0x3dcfa376	0.101385996
185	0xbdd7ba94	-0.10533634
186	0xbcdab9ed	-0.026699984
187	0xbddbc0fb	-0.107301675
188	0xbce6c78b	-0.028171321
189	0x3de853cd	0.11344109
190	0x3d2df186	0.042466663
191	0xbdf9fc60	-0.1220634
192	0x3ccceb7b	0.02501463
193	0xbc85c9c8	-0.016331568
194	0xbd2be805	-0.041969318
195	0x3c87eef6	0.016593438
196	0xbb30601a	-0.002691275
197	0xbd96f5a2	-0.073710695
198	0x3dd3f28f	0.10348999
199	0x3d24a5a7	0.04019704
200	0xbd5e1df1	-0.054227773
201	0x3d4d4496	0.050114237
202	0xbcec6142	-0.02885497
203	0xbda13e32	-0.07873191
204	0x3dab0487	0.08350473
205	0xbd80787d	-0.06272981
206	0xbddfe20d	-0.10931788
207	0x3db76d08	0.08956343
208	0xbbc2b1d0	-0.005941607
209	0x3dacb80e	0.08433543
210	0x3db21e83	0.08697226
211	0x3d2fea7e	0.04294824
212	0x3db7dfc5	0.089782275
213	0x3dc590f5	0.09646789
214	0xbc94dc3c	-0.018171422
215	0xbde63210	-0.112400174
216	0x3d8d9e82	0.069149986
217	0x3d4e3e03	0.050352108
218	0x3db1a8e7	0.08674794
219	0x3d7d7757	0.06188139
220	0x3cae02f0	0.021241635
221	0xbdfa8d3b	-0.12233969
222	0xbd431073	-0.04762311
223	0x3d769aab	0.060206097
224	0xbd9ad026	-0.075592324
225	0xbdd325b7	-0.10309928
226	0x3d563426	0.052295826
227	0x3cbd1e28	0.023085669
228	0x3d86aac3	0.06575539
229	0xbd711513	-0.05885799
230	0xbd8e7056	-0.0695502
231	0x3d54a539	0.05191538
232	0x3d77d26f	0.06050342
233	0x3d479df6	0.048734628
234	0xbde2ea65	-0.110798635
235	0xbdead637	-0.114666395
236	0xbcb808d7	-0.022465153
237	0xbd945360	-0.07242465
238	0x3de583a0	0.11206746
239	0xbd02045e	-0.031742446
240	0xbdaaa461	-0.08332134
241	0xbdac3096	-0.084077045
242	0xbddf12c1	-0.10892249
243	0x3d88955a	0.066691115
244	0xbdc9172d	-0.098188736
245	0xbc765e37	-0.015037111
246	0xbd9a8fa6	-0.0754693
247	0xbc9c69c6	-0.019093405
248	0x3da42513	0.08014884
249	0x3c57c0cd	0.013168526
250	0xbd67c6e5	-0.056586165
251	0x3d2a9e8a	0.0416551
252	0xbc65c0be	-0.014023004
253	0xbd3cb213	-0.046068262
254	0xbd4e5c50	-0.050381005
255	0xbcb9ec0f	-0.02269557

lstm_pos.weight_hh_l0 f4 [256, 64]
0	0xbd885d8d	-0.066584684
1	0x3d538dea	0.05164901
2	0xbd2a7804	-0.041618362
3	0x3d9e5e92	0.077328816
4	0x3ccea4d6	0.025225084
5	0xbda31c2b	-0.07964357
6	0xbd2d87f5	-0.042365987
7	0xbce4fb68	-0.027951911
8	0xbd2cb084	-0.042160526
9	0xbdbe7cb9	-0.09301133
10	0xbd352272	-0.044222303
11	0xbe08a7bd	-0.13345237
12	0x3dce3a74	0.10069743
13	0xbd196ceb	-0.037457388
14	0x3ced603b	0.02897655
15	0xbb85db9b	-0.004085017
16	0xbda8ecd0	-0.082482934
17	0xbdc0ca6c	-0.09413609
18	0x3d0832c5	0.033251543
19	0xbdc9c708	-0.09852415
20	0xbab49f61	-0.0013780409
21	0x3bb6400e	0.005561835
22	0xbdc07557	-0.09397381
23	0xbc1e30f5	-0.009655227
24	0x3dc4c265	0.0960739
25	0x3d003876	0.031303845
26	0xbdcd9cf7	-0.10039704
27	0xba38a870	-0.0007044142
28	0xbcf42911	-0.029804738
29	0x3deec47a	0.11658569
30	0xbcda91e5	-0.026680896
31	0x3d99b406	0.0750504
32	0x3c576fb2	0.013149189
33	0x3da61c83	0.08110907
34	0x3c1988d8	0.009371005
35	0x3b19d5b8	0.0023473334
36	0xbd9141cc	-0.07092628
37	0x3cee159f	0.029063044
38	0x3d22ef7d	0.039779175
39	0x3d7e1a2c	0.06203668
40	0x3d0f4810	0.034980834
41	0xbd40d6e0	-0.04707992
42	0x3d350061	0.044189814
43	0xb8f8c281	-0.00011861791
44	0x3c9ff8f7	0.019527895
45	0x3dd90bfc	0.10597989
46	0x3d97ce30	0.07412374
47	0x3cfb723c	0.03069412
48	0xbd8c75f4	-0.06858435
49	0xbd9ed9b1	-0.07756365
50	0x3b8e2988	0.004338447
51	0x3d65d7d7	0.056114044
52	0x3d52471c	0.051337346
53	0x3d9aff77	0.07568257
54	0xbd82aeb0	-0.06380975
55	0xbdccf570	-0.10007751
56	0xbd5251fc	-0.051347718
57	0x3dbbc0d5	0.09167639
58	0x3c36e4a7	0.011162913
59	0x3d9943a7	0.07483607
60	0xbd2ff0ac	-0.042954132
61	0xbc2e081e	-0.0106220525
62	0xbdfed8c6	-0.1244369
63	0xbc9425e3	-0.018084472
64	0xbc80f6f9	-0.015742766
65	0x3ce70ec8	0.02820529
66	0xbdb1e491	-0.08686174
67	0x3cb74b0d	0.022374654
68	0xbd388516	-0.045048796
69	0xbd589f48	-0.052886277
70	0x3d3fda67	0.046839144
71	0x3df76b4c	0.12081012
72	0x3db76022	0.08953883
73	0x3d17dc92	0.037075587
74	0x3ddb0332	0.10693969
75	0x3d6bfe2d	0.057615448
76	0xbd3389fb	-0.04383276
77	0xbda5ce0e	-0.080959424
78	0x3b91c283	0.0044482364
79	0xbd82411e	-0.06360076
80	0xbd813fcd	-0.06310997
81	0x3e0907cc	0.1338188
82	0x3d817fdb	0.063232146
83	0xbda6e558	-0.081492126
84	0xbd88a426	-0.06671934
85	0xbdb63506	-0.08896832
86	0xbd3df9ec	-0.046380922
87	0xbd2aefdf	-0.041732665
88	0xbd85ee1a	-0.06539555
89	0xbd37f36a	-0.044909872
90	0x3c25643e	0.0100947
91	0x3dd6a542	0.10480739
92	0xbdb9a65b	-0.09064933
93	0xbd6f4e8e	-0.058424525
94	0xbc946ea4	-0.018119164
95	0xbda2bc02	-0.07946016
96	0x3c045f3e	0.008079348
97	0x3b46e279	0.003034739
98	0xbdfbfdd5	-0.12304274
99	0x3c94fa29	0.018185692
100	0x3d8eff6e	0.06982313
101	0xbd2e1261	-0.042497996
102	0xbdebd5ed	-0.115154125
103	0x3dcf7a3d	0.10130737
104	0xbc88b200	-0.01668644
105	0xbd574318	-0.05255422
106	0x3d2e55f3	0.042562436
107	0x3c35d103	0.011097196
108	0x3cc1fd15	0.02368025
109	0x3dcf44e7	0.10120564
110	0x3c938f78	0.018012747
111	0x3dc045ad	0.093882896
112	0x3dbf0c3d	0.09328506
113	0xbce44ba4	-0.0278681
114	0xbd77dd1a	-0.060513593
115	0xbd49cf87	-0.04927018
116	0xbdd1f0f1	-0.10251034
117	0xbde99d4c	-0.11406955
118	0xbdef4145	-0.11682371
119	0xbdebd9f7	-0.11516183
120	0x3cf433e9	0.029809909
121	0xbd4dd48f	-0.05025154
122	0x3da6c349	0.081427164
123	0xbdc4226c	-0.09576878
124	0xbdb9eb00	-0.09078026
125	0xbb88ca7a	-0.0041745277
126	0xbda4b04c	-0.080414385
127	0xbd04ff49	-0.03247002
128	0xbd9c3744	-0.076277286
129	0xbd2b09c9	-0.04175738
130	0x3cb6996b	0.022289952
131	0xbd74a400	-0.059726715
132	0xbda7b27a	-0.081883386
133	0xbd5750a1	-0.052567128
134	0x3d962e21	0.07333017
135	0xbdec19c7	-0.11528354
136	0x3d8fb68c	0.0701724
137	0x3d8dfd41	0.0693307
138	0xbdc67eec	-0.09692177
139	0x3cf28547	0.029604567
140	0xbdad2874	-0.084549814
141	0xbcf2e9bd	-0.02965247
142	0x3c3a868b	0.011384617
143	0x3c9aed1f	0.018911896
144	0xbdaea1c5	-0.08526949
145	0x3dd45a63	0.103688024
146	0xbb80b4ee	-0.0039278185
147	0xbdad0ca8	-0.084496796
148	0x3d6e0fdc	0.058120593
149	0x3bae44b1	0.0053182472
150	0xbd3a45f0	-0.045476854
151	0xbe037012	-0.1283572
152	0xbd027b6d	-0.03185599
153	0x3e01ba12	0.12668636
154	0xbc856fef	-0.016288726
155	0x3d596fd7	0.053085174
156	0x3d4837f0	0.04888147
157	0xbc89bd95	-0.016814033
158	0x3d869d08	0.0657292
159	0x3d5dcda8	0.054151207
160	0xbdfc5201	-0.123203285
161	0x3d82660d	0.06367121
162	0xbdd6bcb5	-0.10485212
163	0xbdba8358	-0.09107083
164	0x3db9781e	0.09056114
165	0x3ddb71c8	0.107150614
166	0xbd560b25	-0.052256722
167	0x3d771d9b	0.06033097
168	0x3d6406ff	0.055670734
169	0x3d0c10eb	0.03419582
170	0x3c52daa4	0.012869511
171	0x3de9739e	0.11399005
172	0xbdea0062	-0.11425854
173	0xbd07e2ad	-0.03317516
174	0x3ca0b915	0.019619504
175	0xbd0ee12b	-0.034882706
176	0x3d127e54	0.035765007
177	0x3d706895	0.058693487
178	0x3c4d52ee	0.012531979
179	0x3d0161a6	0.031587265
180	0x3dc7c2df	0.097539656
181	0x3dac0031	0.08398474
182	0xbc0419c5	-0.008062785
183	0x3c8382d6	0.016053598
184	0xbd94ad69	-0.07259638
185	0x3b2c2094	0.0026264535
186	0x3bef02ae	0.0072940206
187	0x3d84f287	0.06491571
188	0xbc18d30b	-0.00932766
189	0xbdcd13ac	-0.10013518
190	0xbd9fc839	-0.07801861
191	0x3de8cfeb	0.11367782
192	0xbddcce85	-0.10781578
193	0xbd8e09b2	-0.06935443
194	0x3df684dc	0.1203706
195	0x3cc434fb	0.023951044
196	0x3bb40ab5	0.0054944404
197	0xbe053356	-0.13007864
198	0xbc3420ab	-0.010994117
199	0xbcf35c9d	-0.029707247
200	0x3ca892c0	0.020577788
201	0xbc1ba7b8	-0.0095004365
202	0x3d78e2f6	0.06076332
203	0xbd0a905d	-0.03382908
204	0xbd9f5ab3	-0.077809714
205	0x3d37735a	0.044787742
206	0xbd5d7b0d	-0.05407243
207	0xbd04d42f	-0.032428917
208	0x3df91c20	0.121635675
209	0xbdd73e43	-0.10509922
210	0x3d16c355	0.036807377
211	0x3db742b8	0.089482725
212	0xba32a936	-0.00068153755
213	0x3d866aac	0.06563315
214	0x3d1c7342	0.038195856
215	0x3cbfa26d	0.02339288
216	0xbddd919d	-0.10818789
217	0x3cd2ef55	0.025748888
218	0x3df41fab	0.11920103
219	0x3c9fe533	0.01951847
220	0x3cc08538	0.023501024
221	0x3d976f64	0.07394293
222	0xbddda13c	-0.10821769
223	0xbde59e78	-0.11211866
224	0x3d2cee0f	0.042219218
225	0x3c9c1a5c	0.019055538
226	0xbdfd3bd0	-0.12364924
227	0x3ddfedfe	0.10934065
228	0x3d376307	0.044772174
229	0x3d508fc9	0.050918374
230	0xbd66be7b	-0.056334
231	0xbda97d98	-0.08275908
232	0xbcb09a0e	-0.021557834
233	0x3db167a8	0.08662349
234	0xbcb74753	-0.022372877
235	0x3cfbad2c	0.030722223
236	0x3dbb457d	0.09144113
237	0x3b9047ac	0.004403075
238	0x3df8fd3a	0.12157674
239	0x3d87a23c	0.066227406
240	0xbd0f26b7	-0.03494903
241	0x3c79d261	0.015247912
242	0xbdf8c687	-0.12147241
243	0xbdb0ece3	-0.086389326
244	0x3d0c2e8e	0.034224086
245	0xbd95c108	-0.073122084
246	0x3d454716	0.048163496
247	0xbc5fcd8c	-0.013659846
248	0xbdd4b1ef	-0.10385501
249	0x3dc07171	0.09396637
250	0xbd88919d	-0.066683985
251	0xbd9f8421	-0.077888735
252	0x3d8aab6b	0.06770977
253	0x3cbed577	0.023295147
254	0x3da4409b	0.08020135
255	0xbd501ee8	-0.050810724

lstm_pos.bias_ih_l0 f4 [256]
0	0xbd00436d	-0.031314302
1	0x3da85cc3	0.08220818
2	0x3dcfdbb4	0.10149327
3	0xbc081cca	-0.008307645
4	0x3c7db1d5	0.015484293
5	0xbd3aaa40	-0.04557252
6	0x3d85f736	0.06541292
7	0x3d01457f	0.031560417
8	0x3d9d3893	0.07676806
9	0xbda62035	-0.08111612
10	0x3df5a5a3	0.11994483
11	0x3c7825ec	0.01514576
12	0x3de5d596	0.11222379
13	0xbdb9ad97	-0.09066313
14	0x3df9a852	0.12190308
15	0x3d999026	0.07498197
16	0x3da1bf33	0.078977965
17	0xbd890a1f	-0.066913836
18	0xbdab16ec	-0.083539814
19	0xbdaa71f2	-0.083225146
20	0x3cf3f293	0.029778754
21	0x3dc6ad7e	0.0970106
22	0x3cc6b052	0.024253998
23	0x3d8f8694	0.070080906
24	0xbd287643	-0.04112841
25	0x3c08fc4e	0.008360935
26	0xbdda04c8	-0.10645443
27	0xbcb94400	-0.022615433
28	0x3c0f3339	0.00874024
29	0xbd6737fa	-0.056449868
30	0x3da24262	0.07922818
31	0x3be424b8	0.006962385
32	0xbdf9ab4b	-0.12190875
33	0x3d42f678	0.047598332
34	0x3c8c5f9d	0.017135436
35	0xbdc6312d	-0.09677348
36	0xbdd9893c	-0.106218785
37	0xbb6db9c5	-0.0036274057
38	0x3dc16eca	0.094449595
39	0xbde3f450	-0.11130583
40	0x3dd40347	0.103521876
41	0x3dea886f	0.11451804
42	0x3de6769d	0.112530924
43	0xbd9e4f95	-0.07730023
44	0x3d071354	0.032977417
45	0x3d9d46ca	0.076795176
46	0xbdbf2a2f	-0.09334218
47	0xbd831b93	-0.06401744
48	0x3dd97db8	0.10619682
49	0xbd870de3	-0.065944456
50	0x3db46fe9	0.08810408
51	0xbd329861	-0.04360235
52	0x3ce46a22	0.02788264
53	0xbd695d11	-0.05697352
54	0xbdc7b1c7	-0.09750705
55	0xbd1a86ad	-0.037726093
56	0x3da7adad	0.08187423
57	0xbde75259	-0.112950034
58	0xbdd7f0db	-0.105439864
59	0xbdca9ce4	-0.09893206
60	0x3d523990	0.051324427
61	0x3c4b4c8c	0.012408387
62	0xbd4137ef	-0.047172483
63	0xbdf691c9	-0.12039525
64	0x3d371a08	0.04470256
65	0x3d98ad8d	0.07454977
66	0xbd5adc8e	-0.053432994
67	0x3df61cf4	0.12017241
68	0xbdc82d00	-0.09774208
69	0x3c3d1faf	0.0115431985
70	0x3da0484c	0.078262895
71	0x3cd325b2	0.02577481
72	0x3d13660d	0.035985995
73	0x3cbd50de	0.02310985
74	0xbdf03b80	-0.11730099
75	0xbdc627e5	-0.09675578
76	0xbddce916	-0.10786645
77	0x3ceb9b61	0.028760614
78	0xbd28dc6d	-0.04122584
79	0x3de87425	0.11350278
80	0x3def25fb	0.11677166
81	0xbdbce890	-0.09224045
82	0xbbe40583	-0.006958665
83	0xbcfc52fb	-0.030801287
84	0xbd13e465	-0.036106486
85	0x3cc396dd	0.023875648
86	0x3ca43199	0.020043181
87	0xbcc2207d	-0.023697132
88	0xbc5f2c9c	-0.013621476
89	0xbce2862b	-0.027651867
90	0xbc57f2eb	-0.013180475
91	0x3def7377	0.11691945
92	0xbd793cc7	-0.060848977
93	0x3df65945	0.120287456
94	0x3d93695e	0.071978316
95	0xbddd20e3	-0.10797288
96	0xbcdc0552	-0.026858006
97	0xbddf5108	-0.10904127
98	0xbdcad856	-0.09904544
99	0xbaba174c	-0.0014197617
100	0xbd39153d	-0.04518627
101	0xbaa6dadc	-0.001273002
102	0xbdae88f6	-0.08522217
103	0x3de13ba9	0.109977074
104	0xbd8f7efe	-0.07006644
105	0xbd2f15a4	-0.042745247
106	0xbdbf432e	-0.093389854
107	0x3e08c6a8	0.13357031
108	0x3dd4bc73	0.10387506
109	0x3d28857e	0.041142933
110	0x3dcb00f9	0.09912295
111	0xbb9c4278	-0.004768666
112	0xbd267c86	-0.0406461
113	0x3d918f7b	0.07107445
114	0x3ce853b0	0.028360218
115	0x3cff4e36	0.031165224
116	0x3cd31858	0.025768444
117	0xbd0d1206	-0.034441017
118	0xbccf78c6	-0.025326144
119	0x3d33688e	0.043800883
120	0xbc8ba0fd	-0.017044539
121	0x3c5f0c5e	0.013613788
122	0x3da1439a	0.07874222
123	0xbd770a1d	-0.06031238
124	0xbd8a501d	-0.06753562
125	0xbd5cd3c9	-0.05391291
126	0x3ca828d0	0.020527273
127	0xbde6bd29	-0.11266548
128	0x3dd1016a	0.10205348
129	0x3d716d2c	0.058942005
130	0xbd142e9c	-0.036177263
131	0xbdb69fb6	-0.08917181
132	0x3c91d42f	0.017801372
133	0x3e0638c4	0.13107592
134	0x3dde163a	0.10844083
135	0xbd9ba08e	-0.07598983
136	0x3da53fd9	0.080688186
137	0xbb53d4e4	-0.0032322938
138	0xbda079b2	-0.078357115
139	0x3cda20f3	0.02662704
140	0xbd68ff85	-0.056884307
141	0x3d078c3b	0.03309272
142	0x3b4c3116	0.0031157187
143	0xbe07946d	-0.13240214
144	0xbd02e6f1	-0.031958524
145	0x3d670bf4	0.056407884
146	0xbdb47a82	-0.08812429
147	0xbd8932bc	-0.0669913
148	0x3c404212	0.011734502
149	0x3da5f192	0.081027165
150	0x3a8034f6	0.0009781409
151	0x3deffcea	0.117181614
152	0x3b999802	0.00468731
153	0x3d88b3b3	0.066749
154	0x3d9136b1	0.0709051
155	0xbd93750e	-0.07200061
156	0xbda1cbcc	-0.07900199
157	0xbddfbe10	-0.109249234
158	0xbd8f4063	-0.06994703
159	0xbd82144e	-0.06351529
160	0xbd216bc0	-0.0394094
161	0xbcdc54e2	-0.026895944
162	0xbdad5bf7	-0.084648065
163	0xbd8d2915	-0.068926014
164	0xbdb9287b	-0.09040924
165	0x3d565a34	0.05233212
166	0xbcdff827	-0.027340008
167	0x3d196cd7	0.037457313
168	0x39b7380b	0.00034946235
169	0x3d1f4b1f	0.03889
170	0xbdaba82c	-0.083816856
171	0x3dcd8481	0.10035039
172	0xbc014551	-0.0078900615
173	0x3b3feb1f	0.002928443
174	0x3a481317	0.0007632239
175	0xbcbbada0	-0.02290994
176	0xbc450745	-0.012025659
177	0xbdc1cf9f	-0.09463429
178	0xbcc36ebf	-0.023856519
179	0x3c5630d7	0.013073168
180	0x3a7c7b3a	0.00096313993
181	0xbbfd52ab	-0.007730802
182	0xbdcc0e83	-0.099637054
183	0x3afe853f	0.0019418373
184	0xbce4344a	-0.027856965
185	0x3df1a11f	0.117983095
186	0xbd0bb7b7	-0.03411075
187	0x3c15e045	0.009147708
188	0x3dd4c2d8	0.10388726
189	0x3d175382	0.036944874
190	0x3db1757a	0.08664985
191	0xbd492c93	-0.049114775
192	0x3dc451c7	0.0958591
193	0x3dbb30ac	0.09140143
194	0xbde542e1	-0.11194397
195	0x3df8143f	0.12113237
196	0xbdf22c7c	-0.11824891
197	0xbd2566ac	-0.04038112
198	0xbd7df1cc	-0.061998174
199	0x3db0681c	0.08613607
200	0xbcf60921	-0.03003365
201	0x3d5007aa	0.05078856
202	0xbda5bad5	-0.08092276
203	0xbdaa712a	-0.083223656
204	0x3bc8a62e	0.006123326
205	0x3de983d1	0.11402095
206	0xbccfc42d	-0.025362099
207	0x3d5c4d13	0.05378444
208	0x3cc595ca	0.024119277
209	0xbc4cade1	-0.012492628
210	0x3d131dca	0.03591708
211	0x3c58f238	0.013241343
212	0xbde4d98c	-0.11174306
213	0x3c97ac88	0.018514886
214	0x3dadb651	0.0848204
215	0x3db458ce	0.08806001
216	0xbca67124	-0.020317622
217	0xbd8b5443	-0.06803181
218	0xbd817572	-0.06321229
219	0x3d97f8ce	0.074205026
220	0xbb88786a	-0.004164745
221	0x3db56c3f	0.08858537
222	0xbdad8dbe	-0.08474301
223	0xbd37051d	-0.04468261
224	0x3dba7a4d	0.09105358
225	0xbddb8350	-0.10718405
226	0xbc7bfa4b	-0.015379499
227	0xbdcc31da	-0.09970446
228	0x3d36c985	0.044625778
229	0x3d9b34f6	0.07578461
230	0xbd257d15	-0.04040249
231	0x3b9bebeb	0.004758348
232	0x3d64867a	0.05579231
233	0xbd006219	-0.031343553
234	0xbc85aef2	-0.016318772
235	0x3d70690a	0.058693923
236	0x3da3fd9a	0.08007355
237	0xbd751d0f	-0.059842166
238	0x3dd83aa5	0.105580606
239	0xb9b68087	-0.00034809505
240	0xbde43d2a	-0.111444786
241	0xbd38621b	-0.045015436
242	0x3d8ed676	0.06974499
243	0x3dfbd4a8	0.1229642
244	0x3d10798e	0.035272174
245	0x3d5f3722	0.054495938
246	0xbd27ea39	-0.040994857
247	0xbd89b4cb	-0.06723937
248	0xbb1f01a8	-0.0024262462
249	0x3de9ff5e	0.114256606
250	0x3db27b4a	0.08714922
251	0x3d8a3bb9	0.067496724
252	0x3dfef646	0.12449317
253	0xb9b9a575	-0.00035409225
254	0x3defd773	0.117110156
255	0x3dd495ce	0.103801355

lstm_pos.bias_hh_l0 f4 [256]
0	0x3ddc85ba	0.10767694
1	0x3c7243cf	0.014786675
2	0xbda41090	-0.080109715
3	0xbddeeb45	-0.10884718
4	0x3d47244c	0.0486186
5	0xbdc22b2d	-0.094808914
6	0x3dbc5982	0.0919676
7	0xbd6aebe7	-0.05735388
8	0xba3c16d0	-0.000717503
9	0x3d3388df	0.043831702
10	0x3da39fc1	0.07989455
11	0xbd9f8caa	-0.077905014
12	0x3dac4556	0.08411662
13	0x3d44bd81	0.048032288
14	0xbd5ff9fd	-0.054681767
15	0xbd21f83c	-0.039543375
16	0xb918e1c2	-0.00014579951
17	0xbddb15c7	-0.10697513
18	0x3d9fba4a	0.07799204
19	0xbce4a506	-0.02791072
20	0x3c468d7b	0.0121186925
21	0xbd5174aa	-0.05113665
22	0xbd6b4611	-0.057439867
23	0x3d1d7115	0.03843792
24	0xbdf0cb9b	-0.11757585
25	0x3d2cfc34	0.042232707
26	0xbd2d79a7	-0.042352345
27	0xbdbd9555	-0.092569984
28	0x3d4bef4c	0.04978876
29	0x3c9aac78	0.018881068
30	0xbdb72156	-0.08941905
31	0x3d5d85c6	0.054082654
32	0xbd66d980	-0.056359768
33	0xbd999c87	-0.07500558
34	0x3cb2367d	0.021754498
35	0x3d92c315	0.07166115
36	0x3dc112e0	0.09427428
37	0x3d104d71	0.035230104
38	0xbd5b63f8	-0.053562135
39	0xbdc5a588	-0.09650713
40	0xbcec5753	-0.028850233
41	0xbce8c804	-0.028415687
42	0xbdf8efc7	-0.12155109
43	0xbcfa7258	-0.030572101
44	0xbd9aad8d	-0.075526334
45	0xbc5bf601	-0.013425351
46	0x3df5b499	0.11997337
47	0xbd931cb8	-0.07183212
48	0xbdf09196	-0.11746518
49	0x3d884e34	0.06655541
50	0xbde99931	-0.11406172
51	0xbd6f19fd	-0.058374394
52	0xbd7d10a1	-0.061783437
53	0xbb765647	-0.0037588046
54	0xbcb01d7d	-0.021498436
55	0x3d989721	0.074507006
56	0xbdd50829	-0.10401947
57	0x3c59f12c	0.013302129
58	0xbbc1c670	-0.005913548
59	0x3e09fac0	0.1347456
60	0x3d82838b	0.06372746
61	0xbd8405e7	-0.06446438
62	0xbdad5e05	-0.084651984
63	0xbccba576	-0.024859171
64	0x3de397dd	0.1111295
65	0x3d507758	0.050895065
66	0x3d971e86	0.07378869
67	0xbdbdcd34	-0.09267655
68	0xbaa61046	-0.0012669645
69	0x3ddf45f6	0.10902016
70	0xbd47506e	-0.048660688
71	0x3d031522	0.032002576
72	0x3cf82ed4	0.030295767
73	0x3df4f4db	0.11960765
74	0xbd6eb733	-0.05828018
75	0x3db03e27	0.086056046
76	0x3d83495a	0.06410475
77	0x3d35ce64	0.044386283
78	0x3dcf93be	0.101356015
79	0x3d64ce9c	0.0558611
80	0x3d5b6c3b	0.053570013
81	0xbcda866d	-0.026675427
82	0xbdbb195b	-0.091356955
83	0x3de9c7da	0.11415072
84	0xbd8782ae	-0.06616722
85	0xbdd7ed3e	-0.10543297
86	0x3bbbe42c	0.0057339873
87	0xbdcecc14	-0.100975186
88	0xbdc2425f	-0.094853155
89	0xbd411797	-0.047141638
90	0x3d51e6c5	0.05124547
91	0x3d206c60	0.039165854
92	0xbd97f6bb	-0.07420107
93	0xbdb79223	-0.0896342
94	0x3b43aab1	0.0029856379
95	0x3dba3967	0.0909298
96	0x3b19be5e	0.0023459415
97	0x3d6ab3c0	0.05730033
98	0x3d980038	0.07421917
99	0xbd48263d	-0.048864592
100	0x3d897a2f	0.06712758
101	0xbb9721fd	-0.004612206
102	0x3d2db9ed	0.04241364
103	0x3d9837f7	0.074325494
104	0xbd31b32d	-0.043383766
105	0x3cb1167e	0.02161717
106	0xbd4a249f	-0.04935133
107	0xbd648b53	-0.055796932
108	0x3d81e43b	0.0634236
109	0xbdcf0830	-0.101089835
110	0xbd051581	-0.03249121
111	0x3ca91b5c	0.020642929
112	0xbdf069c9	-0.11738927
113	0xbc2d0c9d	-0.010562089
114	0x3d86c128	0.065798104
115	0xbd1582d6	-0.036501728
116	0x3d96f0e3	0.07370164
117	0xbcb9a04f	-0.022659449
118	0x3caea1c5	0.021317372
119	0xbe0a68bb	-0.13516514
120	0x3db81b35	0.08989564
121	0x3c3a8c0b	0.011385928
122	0xbcd8f6d6	-0.026484888
123	0x3cb6a28a	0.022294302
124	0xbda35087	-0.07974344
125	0xbd8b9e73	-0.06817331
126	0xbd88488a	-0.06654461
127	0xbd53e400	-0.05173111
128	0x3dd3c3e4	0.103400975
129	0x3d2d34bc	0.04228662
130	0x3aaeed71	0.001334591
131	0x3d3750e6	0.044754885
132	0xbd2fe8e3	-0.042946707
133	0xbd873bd9	-0.06603212
134	0xbb34e27e	-0.002760082
135	0x3de3f76c	0.11131176
136	0xbd4e7380	-0.050403118
137	0x3df813b7	0.12113135
138	0x3dd98c54	0.106224686
139	0x3dce5059	0.10073919
140	0x3dbd7357	0.09250515
141	0xbd9b64e2	-0.07587601
142	0x3db3cf71	0.08779801
143	0x3a628e4a	0.00086424185
144	0xbdb1b8e6	-0.08677845
145	0xbd199c50	-0.037502587
146	0xbc7b4882	-0.015337111
147	0x3dd001d1	0.101565965
148	0xbda16b21	-0.07881761
149	0x3be2d52e	0.0069223857
150	0x3cab8478	0.02093719
151	0xbdf276f2	-0.11839093
152	0x3db0ddad	0.08636031
153	0xbdce533b	-0.10074469
154	0x3e01feb2	0.12694815
155	0xbddfb2b0	-0.10922754
156	0x3c99118b	0.018685123
157	0xbda89d00	-0.082330704
158	0x3e017c06	0.12644967
159	0xbd9d92a0	-0.07693982
160	0x3cd66371	0.026170464
161	0x39b10210	0.00033761607
162	0xbd237fea	-0.03991691
163	0xbd8e6e0b	-0.06954583
164	0x3d9013bf	0.07035016
165	0xbce16c43	-0.027517444
166	0x3dc2d7f3	0.09513845
167	0x3e01151c	0.12605709
168	0x3e016612	0.12636593
169	0xbcc48492	-0.023988996
170	0x3de05112	0.10952963
171	0xbc46b814	-0.012128849
172	0x3dc120d6	0.09430091
173	0x3da7964c	0.08182964
174	0xbc8a302e	-0.016868677
175	0xbd07d5c2	-0.03316284
176	0xbd940435	-0.07227365
177	0x3d722ad6	0.059122883
178	0xbd03dadd	-0.032191146
179	0xbb1b832a	-0.0023729303
180	0x3d2eaf97	0.042647924
181	0x3ccd8947	0.025089873
182	0xbc15f392	-0.00915231
183	0x3dd26808	0.10273749
184	0x3d397f04	0.045287147
185	0x3da956b1	0.08268488
186	0x3cd6b272	0.026208136
187	0xbd316fa3	-0.043319356
188	0xbd9c3430	-0.076271415
189	0x3dc76fb4	0.097381026
190	0xbd6e57eb	-0.058189314
191	0xbd2da70f	-0.042395648
192	0xbd9cbc95	-0.07653157
193	0xbcea0c94	-0.02857045
194	0xbd88312f	-0.06650006
195	0xbd1dde85	-0.03854229
196	0xbdb9ea26	-0.090778634
197	0xbd97f8e6	-0.074205205
198	0xbd8996b1	-0.06718195
199	0xbb988ef8	-0.004655715
200	0xbd8729db	-0.0659978
201	0x3da2a75f	0.0794208
202	0xbded76a1	-0.11594892
203	0xbde870b2	-0.1134962
204	0xbde1ed15	-0.11031548
205	0x3d58fd4c	0.052975938
206	0xbca9ac9d	-0.020712191
207	0xbdbf9b7d	-0.09355829
208	0xbccd6266	-0.025071334
209	0x3cc44454	0.023958363
210	0x3ddf409c	0.10900995
211	0xbdca6929	-0.09883339
212	0x3d7fe8da	0.062477924
213	0x3d75817e	0.059937946
214	0x3d535336	0.051593028
215	0x3d4f5412	0.050617285
216	0xbd271983	-0.040795814
217	0xbd927767	-0.071516804
218	0xbd7824af	-0.06058186
219	0xbdefe80a	-0.1171418
220	0x3dbb5f59	0.091490455
221	0xbd42c7f1	-0.04755396
222	0xbdd14fee	-0.102203235
223	0xbdc86364	-0.09784582
224	0x3ded0bcf	0.11574518
225	0xbdc0d684	-0.094159156
226	0x3df64c49	0.12026269
227	0x3bf32310	0.0074199513
228	0x3db25bf2	0.087089434
229	0x3da5c1f4	0.08093634
230	0xbd2ce825	-0.042213578
231	0x3d69e3cc	0.05710201
232	0x3bbc9ddd	0.0057561235
233	0x3dbee4a3	0.09320953
234	0xb9f7b562	-0.00047246652
235	0x3d10a7e9	0.03531638
236	0x3d461bff	0.048366543
237	0xbc89f407	-0.016839994
238	0xbd8139cd	-0.06309853
239	0xbcfc588f	-0.030803947
240	0x3d5d338a	0.05400423
241	0x3d7a24cd	0.061070252
242	0x3df0478c	0.117323965
243	0xbdc69c92	-0.09697832
244	0x3de1d5e5	0.11027125
245	0x3ce1d111	0.027565511
246	0x3da39dee	0.07989107
247	0x3d4987f4	0.04920192
248	0xbc9907cf	-0.018680481
249	0x3d7c8ec2	0.061659582
250	0x3d880a8a	0.06642635
251	0xbd19cb78	-0.03754756
252	0x3dd0b460	0.10190654
253	0xbd4bccc4	-0.049755827
254	0x3dda2773	0.106520556
255	0x3dddbdfe	0.10827254

lstm_ori.weight_ih_l0 f4 [256, 32]
0	0x3d06f406	0.032947563
1	0xbdd115fd	-0.10209272
2	0xbc08918f	-0.008335485
3	0x3d89dae2	0.06731202
4	0x3dabb4c2	0.08384086
5	0x3d89e533	0.067331694
6	0x3d64be83	0.05584575
7	0x3e02a61c	0.12758678
8	0x3df88804	0.12135318
9	0xbdf565ea	-0.11982329
10	0xbde80823	-0.11329677
11	0x3df80f2f	0.12112271
12	0x3dd806c7	0.10548168
13	0x3dd1b324	0.102392465
14	0xbdf72228	-0.12067062
15	0xbb8e9cc0	-0.004352182
16	0x3c6f3946	0.014601057
17	0xbd6dbd3d	-0.0580418
18	0x3cb576ae	0.022151317
19	0xbda1f2e9	-0.079076596
20	0x3dc8b23f	0.09799623
21	0x3da3d8aa	0.0800031
22	0xbbd41f6b	-0.006473472
23	0x3d2376f3	0.03990836
24	0xbd02c05c	-0.03192173
25	0x3dc25438	0.0948872
26	0xbd124191	-0.03570706
27	0x3cd47cd3	0.025938427
28	0x3d211cc9	0.039334092
29	0xbd344e76	-0.04402014
30	0x3de9631f	0.11395859
31	0xbe0088cc	-0.12552184
32	0xbdaa7bc3	-0.08324387
33	0x3b3209b1	0.002716642
34	0xbda18ec6	-0.0788856
35	0xbd6e2732	-0.05814285
36	0x3cf00a1f	0.029301701
37	0xbd9d981b	-0.076950274
38	0xbcb38fc4	-0.021919139
39	0x3dd32d3d	0.10311363
40	0xbd6a0576	-0.057134114
41	0x3d0aec84	0.033916965
42	0xbdf07400	-0.11740875
43	0xbc000b04	-0.007815126
44	0x3c9f3dea	0.019438703
45	0x3dbf10f3	0.09329405
46	0xbdc9bf3d	-0.09850929
47	0x3da3e1ed	0.08002076
48	0xbdcd6463	-0.10028913
49	0x3d18a52e	0.037266903
50	0xbdd49131	-0.103792556
51	0xbd7bbb75	-0.06145807
52	0xbd9ac0aa	-0.07556279
53	0x3ca7d13c	0.020485513
54	0x3d36ff4c	0.044677064
55	0x3da2b0f0	0.079439044
56	0xbd6ad74d	-0.057334233
57	0x3d40bc1e	0.047054403
58	0xbd870643	-0.06592991
59	0xbdd6fa4f	-0.10496961
60	0x3df4d0b1	0.11953867
61	0xbd4e64b1	-0.050388996
62	0xbd580fe6	-0.052749537
63	0xbdd9b5b3	-0.106303595
64	0x3cf9c28b	0.030488273
65	0xbd116afc	-0.03550242
66	0xbc6088aa	-0.013704458
67	0xbd623a50	-0.055231392
68	0xbbb61874	-0.0055571143
69	0x3cb9e79c	0.022693448
70	0xbd267eb5	-0.04064818
71	0x3d97383b	0.07383772
72	0xbda14c12	-0.078758374
73	0xbda53555	-0.08066813
74	0x3c84e51c	0.01622253
75	0xbd809827	-0.06279021
76	0xbd1448d3	-0.036202263
77	0x3d6ab5d2	0.057302304
78	0x3c8871f2	0.016655896
79	0x3cfe93fb	0.031076422
80	0x3d9368f0	0.071977496
81	0xbd454b20	-0.048167348
82	0xbd173e2f	-0.036924537
83	0x3d466086	0.048431896
84	0x3df3ac80	0.11898136
85	0x3d087e2b	0.03332345
86	0x3bbfabc5	0.005849334
87	0x3dcb889b	0.09938165
88	0xbdc07166	-0.09396629
89	0xbd113f97	-0.035461035
90	0x3d845fd1	0.06463588
91	0x3d3cf5a0	0.046132684
92	0xbda1a072	-0.07891931
93	0xbd5f4436	-0.05450841
94	0x3d75231f	0.059847947
95	0xbcaa1839	-0.020763503
96	0x3d549269	0.05189744
97	0xbda7f65d	-0.08201287
98	0xbda6a965	-0.08137778
99	0x3db3623e	0.087589726
100	0xbc2bfe77	-0.010497681
101	0x3c8360c6	0.016037356
102	0x3d4a96e7	0.049460318
103	0x3c910fd6	0.017707746
104	0xbddfadac	-0.10921797
105	0x3e01e658	0.12685525
106	0x3d83e6a5	0.06440476
107	0xbdbee65c	-0.09321281
108	0x3ae9eb47	0.0017846607
109	0x3db15b02	0.086599365
110	0xbda02f2c	-0.07821497
111	0x3d665e08	0.05624202
112	0x3db80835	0.0898594
113	0xbcf4a887	-0.029865516
114	0xbdc71e3d	-0.09722564
115	0xbc889f84	-0.016677625
116	0x3dd19c51	0.10234893
117	0xbcebf474	-0.028803088
118	0x3b73de9b	0.003721154
119	0xbd8685ad	-0.065684654
120	0x3dc428a8	0.09578067
121	0xbd8e6419	-0.06952686
122	0xbd60a547	-0.05484512
123	0x3db7279c	0.08943102
124	0x3dbc4d86	0.09194474
125	0x3ac3e2ff	0.001494497
126	0x3d9acc1f	0.07558464
127	0x3c8e9281	0.017403843
128	0x3de3f78b	0.111311994
129	0xbdd761e5	-0.10516719
130	0x3d97d729	0.074140854
131	0x3c994d0f	0.018713502
132	0xbd9a3b1f	-0.07530808
133	0xbcabbf54	-0.020965256
134	0xbd0e2b1d	-0.034709085
135	0xbd961816	-0.07328813
136	0xbdc4bf96	-0.096068546
137	0x3d84d6cf	0.06486284
138	0xbab03c85	-0.0013445771
139	0x3d578116	0.05261334
140	0x3da8f627	0.08250075
141	0x3d9622c4	0.0733085
142	0xbd74a0e4	-0.05972375
143	0xbd996bf6	-0.07491295
144	0xbd36145e	-0.044453017
145	0x3d5d01ea	0.053956904
146	0xbdf4a089	-0.11944682
147	0xbb542719	-0.0032371937
148	0x3cce313a	0.025169957
149	0xbb595320	-0.0033161119
150	0x3df6def0	0.12054241
151	0xbd99daf8	-0.07512468
152	0xbd8f654e	-0.07001744
153	0xbcaf3b74	-0.021390654
154	0xbd2db1b8	-0.042405814
155	0xbdd55bcb	-0.10417899
156	0xbd78578c	-0.060630366
157	0xbcb943db	-0.022615364
158	0x3c86f134	0.016472436
159	0xbcf1210d	-0.029434705
160	0xbc6821e4	-0.014168236
161	0xbbcc4988	-0.0062343515
162	0x3da21f8e	0.07916175
163	0x3d32f242	0.043688066
164	0x3c1ddb25	0.009634768
165	0x3beed46f	0.0072885077
166	0xbd9396b3	-0.07206478
167	0xbdf33f22	-0.11877276
168	0xbdf84a47	-0.12123542
169	0x3d2a2a0c	0.041544005
170	0xbc166f9f	-0.009181886
171	0xbdc75e35	-0.097347654
172	0x3d4a9df9	0.04946706
173	0xbd24c4e5	-0.040226836
174	0x3da56e78	0.08077711
175	0x3d812d3f	0.06307458
176	0xbdd9b849	-0.10630853
177	0xbdeb497c	-0.114886254
178	0x3b296779	0.0025849028
179	0xbdcaad5e	-0.098963484
180	0x3d0a0e94	0.03370531
181	0x3d20cc1e	0.03925716
182	0xbdb74953	-0.08949532
183	0x3d9f6fc3	0.07784989
184	0xbdf3df03	-0.119077705
185	0xbde02d09	-0.1094609
186	0x3dda43ed	0.10657487
187	0xbd8124f3	-0.06305876
188	0xbd6ac44c	-0.05731611
189	0xbda87132	-0.08224715
190	0x3d94dc00	0.07268524
191	0x3dbae7b5	0.09126226
192	0x3caa58b1	0.020794244
193	0x3d7731a7	0.060350087
194	0x3cb83ca3	0.022489851
195	0xbd4368de	-0.04770743
196	0x3dc1c1fd	0.094608285
197	0xbd919690	-0.07108796
198	0x3d310bf6	0.043224297
199	0x3dbc617f	0.091982834
200	0xbdc83f7d	-0.097777344
201	0x3b22aabc	0.0024821004
202	0x3c992231	0.018693062
203	0xbde74732	-0.11292876
204	0x3dd1c038	0.10241741
205	0xbe000201	-0.12500764
206	0x3dc8cf15	0.09805123
207	0xbd5c46cc	-0.053778455
208	0xbcec0f3a	-0.028815854
209	0xbd9fb1ec	-0.07797608
210	0xbcb5eb2a	-0.022206862
211	0xbc744080	-0.014907956
212	0xbc8a39ae	-0.016873207
213	0xbdcf07d4	-0.10108915
214	0x3c351544	0.011052433
215	0xbde8482c	-0.11341891
216	0xbdb33c43	-0.087517284
217	0xbce867c5	-0.028369794
218	0xbce47de0	-0.027892053
219	0xbd1be26e	-0.038057737
220	0xbdb4718e	-0.08810721
221	0x3d73270f	0.05936342
222	0x3def3fb1	0.1168207
223	0x3db2b779	0.08726401
224	0xbd5dfc95	-0.05419596
225	0xbd74ce63	-0.05976714
226	0x3d9258c5	0.07145838
227	0x3c4b9baf	0.012427255
228	0xba947960	-0.0011327676
229	0x3c4d41a9	0.012527862
230	0xbd8cec27	-0.0688098
231	0x3d3635ba	0.04448483
232	0x3db0c04e	0.08630429
233	0x3d5d67b3	0.054053973
234	0x3b0a16e2	0.0021070768
235	0x3c8ead59	0.017416643
236	0x3bd85536	0.006601955
237	0x3daec281	0.085331924
238	0x3ca925f1	0.020647975
239	0x3a9e5493	0.0012079648
240	0x3d0719ed	0.03298371
241	0x3d4d48e8	0.050118357
242	0xbd4c3a0e	-0.049860053
243	0x3d17237d	0.03689908
244	0x3d1c8e5d	0.038221706
245	0x3bd9fc1b	0.0066523678
246	0xbcf591a6	-0.029976677
247	0x3b42bf9c	0.002971626
248	0x3d33acf0	0.043866098
249	0xbc51348b	-0.012768875
250	0xbd679aa2	-0.056543954
251	0x3da66a71	0.08125771
252	0xbe01c15d	-0.12671418
253	0x3c7fcd63	0.015612933
254	0x3d785265	0.060625453
255	0xbdc80f49	-0.097685404

lstm_ori.weight_hh_l0 f4 [256, 64]
0	0xbdcfc540	-0.10145044
1	0x3d8e5897	0.06950491
2	0xbb9dcbba	-0.004815546
3	0xbda5b756	-0.08091609
4	0xbd6c5129	-0.057694588
5	0x3cc1f02c	0.023674093
6	0xbdc1430b	-0.094366156
7	0x3c315b89	0.010825046
8	0xbcbe6662	-0.02324218
9	0xbdfa3968	-0.122179806
10	0x3d1c84b9	0.03821251
11	0xbd550594	-0.052007273
12	0xbd4af711	-0.049552027
13	0xbc02c907	-0.007982499
14	0xbd7a976d	-0.061179567
15	0xbdfef8b1	-0.12449778
16	0xbce22aea	-0.027608354
17	0xbc21cda6	-0.009875691
18	0x3e03f40e	0.12886068
19	0x3dda3275	0.10654155
20	0xbd6cdaeb	-0.057825964
21	0xbd59edd1	-0.053205315
22	0xbce27dc2	-0.027647857
23	0xbdc69f3d	-0.09698341
24	0xbb1f92fe	-0.0024349089
25	0xbde617d5	-0.11235014
26	0xbde54aa2	-0.11195876
27	0x3dd0a20f	0.1018716
28	0x3b0ca230	0.0021458976
29	0xbdc8b0c4	-0.0979934
30	0x3d3463f7	0.044040646
31	0x3df2e0bf	0.11859273
32	0x3bc4d7f6	0.00600719
33	0x3dbc8e25	0.092067994
34	0xbdcc1372	-0.099646464
35	0x3dd214fe	0.1025791
36	0x3cf2ce5f	0.029639421
37	0x3dabd2c2	0.08389808
38	0x3db518ec	0.08842644
39	0xbdce073d	-0.10059974
40	0xbc3b5393	-0.0114335
41	0xbd972f82	-0.07382108
42	0xbde82276	-0.11334698
43	0x3db02f2d	0.08602748
44	0x3d8c8295	0.06860844
45	0xbcebda62	-0.028790656
46	0xbdb5c6f4	-0.08875838
47	0x3dd04ba5	0.10170678
48	0xbcef0ce3	-0.02918095
49	0xbdc88dc5	-0.097926654
50	0xbcef848a	-0.029238004
51	0xbdecccd8	-0.11562508
52	0xbdb2165d	-0.08695672
53	0xbdb39094	-0.087678105
54	0x3db99eee	0.090635166
55	0x3c7d9b93	0.015478986
56	0x3da39dfb	0.07989117
57	0x3d6a658b	0.057225745
58	0xbde20200	-0.11035538
59	0x3d95e85d	0.073197104
60	0xbcef2558	-0.029192612
61	0x3d23b9d0	0.039972126
62	0xbddda4a9	-0.10822422
63	0x3c38089a	0.0112325195
64	0x3d42a3fb	0.047519665
65	0x3dc261a5	0.094912805
66	0xbce1433b	-0.027497878
67	0xbcdd65a5	-0.027026007
68	0xbddb263b	-0.10700651
69	0x3d580b1c	0.05274497
70	0x3df01d38	0.11724323
71	0xbdd6c0f9	-0.10486025
72	0x3d36adcb	0.044599336
73	0xbd915f5c	-0.070982665
74	0xbddf4cac	-0.10903296
75	0xbd31407a	-0.04327438
76	0x3c24730a	0.010037193
77	0xbd86bfed	-0.06579576
78	0xbd9e1fd9	-0.07720918
79	0xbd9f8c1c	-0.077903956
80	0x3ca7b5d2	0.02047244
81	0xbddc7551	-0.10764564
82	0xbde79cd3	-0.11309209
83	0x3d827aa9	0.06371052
84	0x3d320995	0.04346617
85	0xbde44eee	-0.11147867
86	0x3de92b1e	0.11385177
87	0x3df6579f	0.12028431
88	0xbda1e47c	-0.07904908
89	0x3dbcce57	0.09219044
90	0x3db0944d	0.08622036
91	0xbda17e27	-0.0788539
92	0x3d40883f	0.047004934
93	0x3dbe5dbe	0.09295224
94	0xba599e08	-0.00083014416
95	0xbdd5996d	-0.10429654
96	0xbd98a9ce	-0.07454263
97	0xbd3f40c1	-0.046692614
98	0xbdd55407	-0.104164176
99	0x3d883829	0.06651337
100	0xbae2fca2	-0.0017317722
101	0xbd8d51f0	-0.06900394
102	0x3d0e671d	0.034766305
103	0xbda47eed	-0.08032022
104	0x3de26aa7	0.110554986
105	0xbd079e2e	-0.033109836
106	0x3c52087b	0.012819405
107	0xbdf1b4f8	-0.11802095
108	0xbd6a968f	-0.05727249
109	0xbbf08679	-0.007340249
110	0x3c9171f0	0.017754525
111	0x3c963a00	0.018338203
112	0xbcec9489	-0.02887942
113	0xbcfb6042	-0.030685548
114	0x3dd231a2	0.10263373
115	0xbd2b58f2	-0.04183287
116	0xbd684fc0	-0.05671668
117	0xbdc4dd6a	-0.09612544
118	0xbdd1a6b5	-0.10236875
119	0x3db0c031	0.086304076
120	0xbdbb5b82	-0.09148313
121	0x3d570d32	0.05250282
122	0x3c921d5c	0.017836265
123	0x3d237ef9	0.039916012
124	0x3cecf3fd	0.028924936
125	0xbc9cb958	-0.019131348
126	0x3d6469c1	0.055764917
127	0xbd926e5a	-0.07149954
128	0xbde4ecce	-0.111779794
129	0xbc863c63	-0.016386217
130	0x3dd6c5ff	0.104869835
131	0xbdda8504	-0.10669902
132	0x3df366a5	0.11884812
133	0xbdb14c03	-0.08657076
134	0x3de9effd	0.11422727
135	0xbe030354	-0.12794238
136	0x3b7af87a	0.0038295076
137	0xbdde8089	-0.1086436
138	0xbcd77c8c	-0.026304506
139	0x3dbd80f2	0.0925311
140	0xbbdb37f1	-0.0066900183
141	0xbc26748b	-0.010159622
142	0xbd4cec29	-0.050029907
143	0xbd5bee6c	-0.053694174
144	0x3d13831e	0.036013715
145	0x3cff38e0	0.03115505
146	0x3c8408a6	0.016117405
147	0xbc9078dd	-0.017635757
148	0xbdef2296	-0.116765186
149	0xbd9c275d	-0.076246955
150	0xbd5d4068	-0.0540165
151	0xbdbbc070	-0.09167564
152	0xbd86af00	-0.06576347
153	0xbde1430c	-0.10999116
154	0xbd7418ff	-0.05959415
155	0xbcd34496	-0.02578954
156	0x3dc76bea	0.0973738
157	0x3cf99dc4	0.030470736
158	0x3d91a25a	0.07111044
159	0xbca05b31	-0.019574733
160	0xbc9fe85a	-0.019519974
161	0x3cb672b8	0.022271499
162	0x3da1c85a	0.07899542
163	0xbd9ee6c6	-0.0775886
164	0x3dfc67df	0.12324499
165	0xbd89d290	-0.06729615
166	0x3d6504cc	0.055912778
167	0xbba2fd8b	-0.0049740723
168	0x3ddef8b8	0.10887283
169	0xbdbd408e	-0.092408285
170	0xbb50e087	-0.003187211
171	0xbdc027cc	-0.09382591
172	0x3c5e51ff	0.013569354
173	0x3dbfd375	0.09366504
174	0xbb70ceff	-0.0036744473
175	0xbdb71e75	-0.08941356
176	0xbda0d60a	-0.07853325
177	0xbdfa95e8	-0.122356236
178	0xbd7af823	-0.061271798
179	0x3dcebc0e	0.10094462
180	0xbdc2c274	-0.09509745
181	0xbdf0b52b	-0.11753305
182	0xbd880f6e	-0.06643568
183	0x3cff2045	0.031143317
184	0xbd72789e	-0.05919706
185	0xbde8d01a	-0.11367817
186	0x3d93e1cc	0.07220802
187	0x3d8f74d4	0.07004705
188	0xbd0913f5	-0.033466298
189	0xbd83d124	-0.06436375
190	0x3d249f3b	0.040190917
191	0xbcdbbf5b	-0.026824644
192	0x3ce8e075	0.028427342
193	0x3d737dfc	0.05944632
194	0xbcb540fa	-0.02212571
195	0xbd9123da	-0.07086916
196	0xbdbffa5b	-0.093739234
197	0xbd237565	-0.039906878
198	0x3d8be352	0.06830467
199	0xbd9ca123	-0.07647922
200	0x3d570b77	0.052501168
201	0x3dcb2b41	0.099203594
202	0xbdd26aeb	-0.10274299
203	0xbdb03909	-0.086046286
204	0xbd13e204	-0.036104217
205	0xbcd216fd	-0.025645727
206	0xbdc9bc8a	-0.09850414
207	0xbce4821f	-0.027894078
208	0x3d1c595f	0.03817117
209	0xbd0dca92	-0.034617014
210	0xbce3f311	-0.027825864
211	0x3d4e8c4e	0.050426774
212	0x3dcef22d	0.10104785
213	0xbd97f75f	-0.07420229
214	0x3d941aee	0.07231699
215	0xbcde70d4	-0.02715341
216	0xbd9cce09	-0.076564856
217	0x3db360ed	0.087587215
218	0xbdaf8808	-0.08570868
219	0xbd1dfb0f	-0.038569506
220	0x3b31dbb6	0.0027139015
221	0xbda936c1	-0.082623966
222	0x3d652a95	0.055948813
223	0x3d7bc87c	0.061470494
224	0x3c95d077	0.01828788
225	0x3d6c76d5	0.057730515
226	0xbb147614	-0.0022653388
227	0x3dd24df7	0.10268777
228	0xbd6e99e1	-0.05825222
229	0x3d8987c9	0.06715352
230	0x3dd9a0c7	0.10626369
231	0xbd076382	-0.033053882
232	0xbd44095e	-0.047860496
233	0xbcb05fad	-0.021529997
234	0xbda5c40d	-0.08094034
235	0xbd9aef61	-0.07565189
236	0x3be1d228	0.0068915077
237	0x3d751353	0.059832882
238	0x3de9f47a	0.11423583
239	0x3d19563f	0.037435766
240	0xbddec33c	-0.10877082
241	0xba7079ad	-0.00091734045
242	0xbb0a6e33	-0.0021122813
243	0xbda554ae	-0.08072792
244	0xbdc22e55	-0.094814934
245	0x3d628626	0.055303715
246	0xbd33cff5	-0.043899495
247	0x3dd32811	0.103103764
248	0xbd44fc6f	-0.048092302
249	0xbd36b253	-0.044603657
250	0x3cae58e9	0.02128263
251	0x3cc487ac	0.023990475
252	0xbc8fafba	-0.017539848
253	0xbc890a8e	-0.016728666
254	0x3d8246d3	0.06361165
255	0x3c6ef08a	0.014583716
